2023-11-18 14:32:37,558 - utils - DEBUG - Model tracker file 'model_tracker.pickle' was found! Loading into current process.
2023-11-18 14:32:37,717 - utils - INFO - Model Summary: 
Model: "sequential"
_________________________________________________________________
 Layer (type)                Output Shape              Param #   
=================================================================
 conv2d (Conv2D)             (None, 256, 256, 32)      320       
                                                                 
 max_pooling2d (MaxPooling2  (None, 128, 128, 32)      0         
 D)                                                              
                                                                 
 conv2d_1 (Conv2D)           (None, 128, 128, 64)      18496     
                                                                 
 max_pooling2d_1 (MaxPoolin  (None, 64, 64, 64)        0         
 g2D)                                                            
                                                                 
 conv2d_2 (Conv2D)           (None, 64, 64, 128)       73856     
                                                                 
 max_pooling2d_2 (MaxPoolin  (None, 32, 32, 128)       0         
 g2D)                                                            
                                                                 
 flatten (Flatten)           (None, 131072)            0         
                                                                 
 dense (Dense)               (None, 1024)              134218752 
                                                                 
 dense_1 (Dense)             (None, 512)               524800    
                                                                 
 dense_2 (Dense)             (None, 256)               131328    
                                                                 
 dropout (Dropout)           (None, 256)               0         
                                                                 
 dense_3 (Dense)             (None, 4)                 1028      
                                                                 
=================================================================
Total params: 134968580 (514.86 MB)
Trainable params: 134968580 (514.86 MB)
Non-trainable params: 0 (0.00 Byte)
_________________________________________________________________
2023-11-18 14:46:05,055 - __main__ - DEBUG - Model Key from most recent training: 13
…
